…
INFO:gensim.utils:saving Word2Vec object under weights.02.11.hdf5, separately None\
INFO:gensim.utils:not storing attribute syn0norm\
INFO:gensim.utils:not storing attribute cum_table\
INFO:gensim.utils:saved weights.02.11.hdf5\
average length of sentence 15\
(66856, 10) (66856, 8456)\
8456 10\
____________________________________________________________________________________________________\
Layer (type)                     Output Shape          Param #     Connected to                     \
====================================================================================================\
embedding_1 (Embedding)          (None, 10, 100)       5000000     embedding_input_1[0][0]          \
____________________________________________________________________________________________________\
convolution1d_1 (Convolution1D)  (None, 10, 288)       86688       embedding_1[0][0]                \
____________________________________________________________________________________________________\
maxpooling1d_1 (MaxPooling1D)    (None, 3, 288)        0           convolution1d_1[0][0]            \
____________________________________________________________________________________________________\
lstm_1 (LSTM)                    (None, 3, 96)         147840      maxpooling1d_1[0][0]             \
____________________________________________________________________________________________________\
dropout_1 (Dropout)              (None, 3, 96)         0           lstm_1[0][0]                     \
____________________________________________________________________________________________________\
lstm_2 (LSTM)                    (None, 3, 96)         74112       dropout_1[0][0]                  \
____________________________________________________________________________________________________\
dropout_2 (Dropout)              (None, 3, 96)         0           lstm_2[0][0]                     \
____________________________________________________________________________________________________\
lstm_3 (LSTM)                    (None, 3, 288)        443520      dropout_2[0][0]                  \
____________________________________________________________________________________________________\
dropout_3 (Dropout)              (None, 3, 288)        0           lstm_3[0][0]                     \
____________________________________________________________________________________________________\
lstm_4 (LSTM)                    (None, 3, 288)        664704      dropout_3[0][0]                  \
____________________________________________________________________________________________________\
dropout_4 (Dropout)              (None, 3, 288)        0           lstm_4[0][0]                     \
____________________________________________________________________________________________________\
convolution1d_2 (Convolution1D)  (None, 3, 64)         55360       dropout_4[0][0]                  \
____________________________________________________________________________________________________\
maxpooling1d_2 (MaxPooling1D)    (None, 1, 64)         0           convolution1d_2[0][0]            \
____________________________________________________________________________________________________\
lstm_5 (LSTM)                    (None, 1, 96)         61824       maxpooling1d_2[0][0]             \
____________________________________________________________________________________________________\
dropout_5 (Dropout)              (None, 1, 96)         0           lstm_5[0][0]                     \
____________________________________________________________________________________________________\
lstm_6 (LSTM)                    (None, 1, 96)         74112       dropout_5[0][0]                  \
____________________________________________________________________________________________________\
dropout_6 (Dropout)              (None, 1, 96)         0           lstm_6[0][0]                     \
____________________________________________________________________________________________________\
lstm_7 (LSTM)                    (None, 1, 96)         74112       dropout_6[0][0]                  \
____________________________________________________________________________________________________\
dropout_7 (Dropout)              (None, 1, 96)         0           lstm_7[0][0]                     \
____________________________________________________________________________________________________\
lstm_8 (LSTM)                    (None, 1, 96)         74112       dropout_7[0][0]                  \
____________________________________________________________________________________________________\
dropout_8 (Dropout)              (None, 1, 96)         0           lstm_8[0][0]                     \
____________________________________________________________________________________________________\
lstm_9 (LSTM)                    (None, 160)           164480      dropout_8[0][0]                  \
____________________________________________________________________________________________________\
dropout_9 (Dropout)              (None, 160)           0           lstm_9[0][0]                     \
____________________________________________________________________________________________________\
dense_1 (Dense)                  (None, 8456)          1361416     dropout_9[0][0]                  \
====================================================================================================\
Total params: 8282280\
____________________________________________________________________________________________________\
None\
0\
Epoch 1/2\
66856/66856 [==============================] - 22s - loss: 7.1645 - acc: 0.0623         \
Epoch 2/2\
66856/66856 [==============================] - 22s - loss: 6.8937 - acc: 0.0627     \
…
INFO:gensim.utils:saving Word2Vec object under weights.02.11.hdf5, separately None\
INFO:gensim.utils:not storing attribute syn0norm\
INFO:gensim.utils:not storing attribute cum_table\
INFO:gensim.utils:saved weights.02.11.hdf5\
average length of sentence 15\
(66856, 10) (66856, 8456)\
8456 10\
____________________________________________________________________________________________________\
Layer (type)                     Output Shape          Param #     Connected to                     \
====================================================================================================\
embedding_1 (Embedding)          (None, 10, 100)       5000000     embedding_input_1[0][0]          \
____________________________________________________________________________________________________\
convolution1d_1 (Convolution1D)  (None, 10, 288)       86688       embedding_1[0][0]                \
____________________________________________________________________________________________________\
maxpooling1d_1 (MaxPooling1D)    (None, 3, 288)        0           convolution1d_1[0][0]            \
____________________________________________________________________________________________________\
lstm_1 (LSTM)                    (None, 3, 96)         147840      maxpooling1d_1[0][0]             \
____________________________________________________________________________________________________\
dropout_1 (Dropout)              (None, 3, 96)         0           lstm_1[0][0]                     \
____________________________________________________________________________________________________\
lstm_2 (LSTM)                    (None, 3, 96)         74112       dropout_1[0][0]                  \
____________________________________________________________________________________________________\
dropout_2 (Dropout)              (None, 3, 96)         0           lstm_2[0][0]                     \
____________________________________________________________________________________________________\
lstm_3 (LSTM)                    (None, 3, 288)        443520      dropout_2[0][0]                  \
____________________________________________________________________________________________________\
dropout_3 (Dropout)              (None, 3, 288)        0           lstm_3[0][0]                     \
____________________________________________________________________________________________________\
lstm_4 (LSTM)                    (None, 3, 288)        664704      dropout_3[0][0]                  \
____________________________________________________________________________________________________\
dropout_4 (Dropout)              (None, 3, 288)        0           lstm_4[0][0]                     \
____________________________________________________________________________________________________\
convolution1d_2 (Convolution1D)  (None, 3, 64)         55360       dropout_4[0][0]                  \
____________________________________________________________________________________________________\
maxpooling1d_2 (MaxPooling1D)    (None, 1, 64)         0           convolution1d_2[0][0]            \
____________________________________________________________________________________________________\
lstm_5 (LSTM)                    (None, 1, 96)         61824       maxpooling1d_2[0][0]             \
____________________________________________________________________________________________________\
dropout_5 (Dropout)              (None, 1, 96)         0           lstm_5[0][0]                     \
____________________________________________________________________________________________________\
lstm_6 (LSTM)                    (None, 1, 96)         74112       dropout_5[0][0]                  \
____________________________________________________________________________________________________\
dropout_6 (Dropout)              (None, 1, 96)         0           lstm_6[0][0]                     \
____________________________________________________________________________________________________\
lstm_7 (LSTM)                    (None, 1, 96)         74112       dropout_6[0][0]                  \
____________________________________________________________________________________________________\
dropout_7 (Dropout)              (None, 1, 96)         0           lstm_7[0][0]                     \
____________________________________________________________________________________________________\
lstm_8 (LSTM)                    (None, 1, 96)         74112       dropout_7[0][0]                  \
____________________________________________________________________________________________________\
dropout_8 (Dropout)              (None, 1, 96)         0           lstm_8[0][0]                     \
____________________________________________________________________________________________________\
lstm_9 (LSTM)                    (None, 1, 288)        443520      dropout_8[0][0]                  \
____________________________________________________________________________________________________\
dropout_9 (Dropout)              (None, 1, 288)        0           lstm_9[0][0]                     \
____________________________________________________________________________________________________\
lstm_10 (LSTM)                   (None, 1, 288)        664704      dropout_9[0][0]                  \
____________________________________________________________________________________________________\
dropout_10 (Dropout)             (None, 1, 288)        0           lstm_10[0][0]                    \
____________________________________________________________________________________________________\
lstm_11 (LSTM)                   (None, 1, 288)        664704      dropout_10[0][0]                 \
____________________________________________________________________________________________________\
dropout_11 (Dropout)             (None, 1, 288)        0           lstm_11[0][0]                    \
____________________________________________________________________________________________________\
lstm_12 (LSTM)                   (None, 1, 288)        664704      dropout_11[0][0]                 \
____________________________________________________________________________________________________\
dropout_12 (Dropout)             (None, 1, 288)        0           lstm_12[0][0]                    \
____________________________________________________________________________________________________\
lstm_13 (LSTM)                   (None, 1, 288)        664704      dropout_12[0][0]                 \
____________________________________________________________________________________________________\
dropout_13 (Dropout)             (None, 1, 288)        0           lstm_13[0][0]                    \
____________________________________________________________________________________________________\
lstm_14 (LSTM)                   (None, 1, 288)        664704      dropout_13[0][0]                 \
____________________________________________________________________________________________________\
dropout_14 (Dropout)             (None, 1, 288)        0           lstm_14[0][0]                    \
____________________________________________________________________________________________________\
lstm_15 (LSTM)                   (None, 1, 288)        664704      dropout_14[0][0]                 \
____________________________________________________________________________________________________\
dropout_15 (Dropout)             (None, 1, 288)        0           lstm_15[0][0]                    \
____________________________________________________________________________________________________\
lstm_16 (LSTM)                   (None, 1, 288)        664704      dropout_15[0][0]                 \
____________________________________________________________________________________________________\
dropout_16 (Dropout)             (None, 1, 288)        0           lstm_16[0][0]                    \
____________________________________________________________________________________________________\
lstm_17 (LSTM)                   (None, 1, 288)        664704      dropout_16[0][0]                 \
____________________________________________________________________________________________________\
dropout_17 (Dropout)             (None, 1, 288)        0           lstm_17[0][0]                    \
____________________________________________________________________________________________________\
lstm_18 (LSTM)                   (None, 1, 288)        664704      dropout_17[0][0]                 \
____________________________________________________________________________________________________\
dropout_18 (Dropout)             (None, 1, 288)        0           lstm_18[0][0]                    \
____________________________________________________________________________________________________\
lstm_19 (LSTM)                   (None, 1, 288)        664704      dropout_18[0][0]                 \
____________________________________________________________________________________________________\
dropout_19 (Dropout)             (None, 1, 288)        0           lstm_19[0][0]                    \
____________________________________________________________________________________________________\
lstm_20 (LSTM)                   (None, 1, 96)         147840      dropout_19[0][0]                 \
____________________________________________________________________________________________________\
dropout_20 (Dropout)             (None, 1, 96)         0           lstm_20[0][0]                    \
____________________________________________________________________________________________________\
lstm_21 (LSTM)                   (None, 160)           164480      dropout_20[0][0]                 \
____________________________________________________________________________________________________\
dropout_21 (Dropout)             (None, 160)           0           lstm_21[0][0]                    \
____________________________________________________________________________________________________\
dense_1 (Dense)                  (None, 8456)          1361416     dropout_21[0][0]                 \
====================================================================================================\
Total params: 15520680\
____________________________________________________________________________________________________\
None\
0\
Epoch 1/20\
66856/66856 [==============================] - 37s - loss: 7.1368 - acc: 0.0622         \
Epoch 2/20\
66856/66856 [==============================] - 36s - loss: 6.8976 - acc: 0.0627     \
…
INFO:gensim.utils:saving Word2Vec object under weights.02.11.hdf5, separately None\
INFO:gensim.utils:not storing attribute syn0norm\
INFO:gensim.utils:not storing attribute cum_table\
INFO:gensim.utils:saved weights.02.11.hdf5\
average length of sentence 15\
(66856, 10) (66856, 8456)\
8456 10\
____________________________________________________________________________________________________\
Layer (type)                     Output Shape          Param #     Connected to                     \
====================================================================================================\
embedding_1 (Embedding)          (None, 10, 100)       5000000     embedding_input_1[0][0]          \
____________________________________________________________________________________________________\
convolution1d_1 (Convolution1D)  (None, 10, 288)       86688       embedding_1[0][0]                \
____________________________________________________________________________________________________\
maxpooling1d_1 (MaxPooling1D)    (None, 3, 288)        0           convolution1d_1[0][0]            \
____________________________________________________________________________________________________\
lstm_1 (LSTM)                    (None, 3, 96)         147840      maxpooling1d_1[0][0]             \
____________________________________________________________________________________________________\
dropout_1 (Dropout)              (None, 3, 96)         0           lstm_1[0][0]                     \
____________________________________________________________________________________________________\
lstm_2 (LSTM)                    (None, 3, 96)         74112       dropout_1[0][0]                  \
____________________________________________________________________________________________________\
dropout_2 (Dropout)              (None, 3, 96)         0           lstm_2[0][0]                     \
____________________________________________________________________________________________________\
lstm_3 (LSTM)                    (None, 3, 288)        443520      dropout_2[0][0]                  \
____________________________________________________________________________________________________\
dropout_3 (Dropout)              (None, 3, 288)        0           lstm_3[0][0]                     \
____________________________________________________________________________________________________\
lstm_4 (LSTM)                    (None, 3, 288)        664704      dropout_3[0][0]                  \
____________________________________________________________________________________________________\
dropout_4 (Dropout)              (None, 3, 288)        0           lstm_4[0][0]                     \
____________________________________________________________________________________________________\
convolution1d_2 (Convolution1D)  (None, 3, 64)         55360       dropout_4[0][0]                  \
____________________________________________________________________________________________________\
maxpooling1d_2 (MaxPooling1D)    (None, 1, 64)         0           convolution1d_2[0][0]            \
____________________________________________________________________________________________________\
lstm_5 (LSTM)                    (None, 1, 96)         61824       maxpooling1d_2[0][0]             \
____________________________________________________________________________________________________\
dropout_5 (Dropout)              (None, 1, 96)         0           lstm_5[0][0]                     \
____________________________________________________________________________________________________\
lstm_6 (LSTM)                    (None, 1, 96)         74112       dropout_5[0][0]                  \
____________________________________________________________________________________________________\
dropout_6 (Dropout)              (None, 1, 96)         0           lstm_6[0][0]                     \
____________________________________________________________________________________________________\
lstm_7 (LSTM)                    (None, 1, 96)         74112       dropout_6[0][0]                  \
____________________________________________________________________________________________________\
dropout_7 (Dropout)              (None, 1, 96)         0           lstm_7[0][0]                     \
____________________________________________________________________________________________________\
lstm_8 (LSTM)                    (None, 1, 96)         74112       dropout_7[0][0]                  \
____________________________________________________________________________________________________\
dropout_8 (Dropout)              (None, 1, 96)         0           lstm_8[0][0]                     \
____________________________________________________________________________________________________\
lstm_9 (LSTM)                    (None, 1, 96)         74112       dropout_8[0][0]                  \
____________________________________________________________________________________________________\
dropout_9 (Dropout)              (None, 1, 96)         0           lstm_9[0][0]                     \
____________________________________________________________________________________________________\
lstm_10 (LSTM)                   (None, 1, 96)         74112       dropout_9[0][0]                  \
____________________________________________________________________________________________________\
dropout_10 (Dropout)             (None, 1, 96)         0           lstm_10[0][0]                    \
____________________________________________________________________________________________________\
lstm_11 (LSTM)                   (None, 1, 96)         74112       dropout_10[0][0]                 \
____________________________________________________________________________________________________\
dropout_11 (Dropout)             (None, 1, 96)         0           lstm_11[0][0]                    \
____________________________________________________________________________________________________\
lstm_12 (LSTM)                   (None, 1, 96)         74112       dropout_11[0][0]                 \
____________________________________________________________________________________________________\
dropout_12 (Dropout)             (None, 1, 96)         0           lstm_12[0][0]                    \
____________________________________________________________________________________________________\
lstm_13 (LSTM)                   (None, 1, 96)         74112       dropout_12[0][0]                 \
____________________________________________________________________________________________________\
dropout_13 (Dropout)             (None, 1, 96)         0           lstm_13[0][0]                    \
____________________________________________________________________________________________________\
lstm_14 (LSTM)                   (None, 1, 96)         74112       dropout_13[0][0]                 \
____________________________________________________________________________________________________\
dropout_14 (Dropout)             (None, 1, 96)         0           lstm_14[0][0]                    \
____________________________________________________________________________________________________\
lstm_15 (LSTM)                   (None, 1, 96)         74112       dropout_14[0][0]                 \
____________________________________________________________________________________________________\
dropout_15 (Dropout)             (None, 1, 96)         0           lstm_15[0][0]                    \
____________________________________________________________________________________________________\
lstm_16 (LSTM)                   (None, 1, 96)         74112       dropout_15[0][0]                 \
____________________________________________________________________________________________________\
dropout_16 (Dropout)             (None, 1, 96)         0           lstm_16[0][0]                    \
____________________________________________________________________________________________________\
lstm_17 (LSTM)                   (None, 1, 96)         74112       dropout_16[0][0]                 \
____________________________________________________________________________________________________\
dropout_17 (Dropout)             (None, 1, 96)         0           lstm_17[0][0]                    \
____________________________________________________________________________________________________\
lstm_18 (LSTM)                   (None, 1, 96)         74112       dropout_17[0][0]                 \
____________________________________________________________________________________________________\
dropout_18 (Dropout)             (None, 1, 96)         0           lstm_18[0][0]                    \
____________________________________________________________________________________________________\
lstm_19 (LSTM)                   (None, 1, 96)         74112       dropout_18[0][0]                 \
____________________________________________________________________________________________________\
dropout_19 (Dropout)             (None, 1, 96)         0           lstm_19[0][0]                    \
____________________________________________________________________________________________________\
lstm_20 (LSTM)                   (None, 1, 96)         74112       dropout_19[0][0]                 \
____________________________________________________________________________________________________\
dropout_20 (Dropout)             (None, 1, 96)         0           lstm_20[0][0]                    \
____________________________________________________________________________________________________\
lstm_21 (LSTM)                   (None, 160)           164480      dropout_20[0][0]                 \
____________________________________________________________________________________________________\
dropout_21 (Dropout)             (None, 160)           0           lstm_21[0][0]                    \
____________________________________________________________________________________________________\
dense_1 (Dense)                  (None, 8456)          1361416     dropout_21[0][0]                 \
====================================================================================================\
Total params: 9171624\
____________________________________________________________________________________________________\
None\
0\
Epoch 1/20\
66856/66856 [==============================] - 30s - loss: 7.2234 - acc: 0.0621         \
Epoch 2/20\
66856/66856 [==============================] - 30s - loss: 6.8948 - acc: 0.0627     \
…
INFO:gensim.utils:saving Word2Vec object under weights.02.11.hdf5, separately None\
INFO:gensim.utils:not storing attribute syn0norm\
INFO:gensim.utils:not storing attribute cum_table\
INFO:gensim.utils:saved weights.02.11.hdf5\
average length of sentence 15\
(66856, 10) (66856, 8456)\
8456 10\
____________________________________________________________________________________________________\
Layer (type)                     Output Shape          Param #     Connected to                     \
====================================================================================================\
embedding_1 (Embedding)          (None, 10, 100)       5000000     embedding_input_1[0][0]          \
____________________________________________________________________________________________________\
convolution1d_1 (Convolution1D)  (None, 10, 288)       86688       embedding_1[0][0]                \
____________________________________________________________________________________________________\
maxpooling1d_1 (MaxPooling1D)    (None, 3, 288)        0           convolution1d_1[0][0]            \
____________________________________________________________________________________________________\
lstm_1 (LSTM)                    (None, 3, 96)         147840      maxpooling1d_1[0][0]             \
____________________________________________________________________________________________________\
dropout_1 (Dropout)              (None, 3, 96)         0           lstm_1[0][0]                     \
____________________________________________________________________________________________________\
lstm_2 (LSTM)                    (None, 3, 96)         74112       dropout_1[0][0]                  \
____________________________________________________________________________________________________\
dropout_2 (Dropout)              (None, 3, 96)         0           lstm_2[0][0]                     \
____________________________________________________________________________________________________\
lstm_3 (LSTM)                    (None, 3, 288)        443520      dropout_2[0][0]                  \
____________________________________________________________________________________________________\
dropout_3 (Dropout)              (None, 3, 288)        0           lstm_3[0][0]                     \
____________________________________________________________________________________________________\
lstm_4 (LSTM)                    (None, 3, 288)        664704      dropout_3[0][0]                  \
____________________________________________________________________________________________________\
dropout_4 (Dropout)              (None, 3, 288)        0           lstm_4[0][0]                     \
____________________________________________________________________________________________________\
convolution1d_2 (Convolution1D)  (None, 3, 64)         55360       dropout_4[0][0]                  \
____________________________________________________________________________________________________\
maxpooling1d_2 (MaxPooling1D)    (None, 1, 64)         0           convolution1d_2[0][0]            \
____________________________________________________________________________________________________\
lstm_5 (LSTM)                    (None, 1, 96)         61824       maxpooling1d_2[0][0]             \
____________________________________________________________________________________________________\
dropout_5 (Dropout)              (None, 1, 96)         0           lstm_5[0][0]                     \
____________________________________________________________________________________________________\
lstm_6 (LSTM)                    (None, 160)           164480      dropout_5[0][0]                  \
____________________________________________________________________________________________________\
dropout_6 (Dropout)              (None, 160)           0           lstm_6[0][0]                     \
____________________________________________________________________________________________________\
dense_1 (Dense)                  (None, 8456)          1361416     dropout_6[0][0]                  \
====================================================================================================\
Total params: 8059944\
____________________________________________________________________________________________________\
None\
0\
Epoch 1/20\
66856/66856 [==============================] - 20s - loss: 7.1333 - acc: 0.0620         \
Epoch 2/20\
66856/66856 [==============================] - 20s - loss: 6.8952 - acc: 0.0627     \
…
INFO:gensim.utils:saving Word2Vec object under weights.02.11.hdf5, separately None\
INFO:gensim.utils:not storing attribute syn0norm\
INFO:gensim.utils:not storing attribute cum_table\
INFO:gensim.utils:saved weights.02.11.hdf5\
average length of sentence 15\
(66856, 10) (66856, 8456)\
8456 10\
____________________________________________________________________________________________________\
Layer (type)                     Output Shape          Param #     Connected to                     \
====================================================================================================\
embedding_1 (Embedding)          (None, 10, 100)       5000000     embedding_input_1[0][0]          \
____________________________________________________________________________________________________\
convolution1d_1 (Convolution1D)  (None, 10, 288)       86688       embedding_1[0][0]                \
____________________________________________________________________________________________________\
maxpooling1d_1 (MaxPooling1D)    (None, 3, 288)        0           convolution1d_1[0][0]            \
____________________________________________________________________________________________________\
lstm_1 (LSTM)                    (None, 3, 96)         147840      maxpooling1d_1[0][0]             \
____________________________________________________________________________________________________\
dropout_1 (Dropout)              (None, 3, 96)         0           lstm_1[0][0]                     \
____________________________________________________________________________________________________\
lstm_2 (LSTM)                    (None, 3, 288)        443520      dropout_1[0][0]                  \
____________________________________________________________________________________________________\
dropout_2 (Dropout)              (None, 3, 288)        0           lstm_2[0][0]                     \
____________________________________________________________________________________________________\
convolution1d_2 (Convolution1D)  (None, 3, 64)         55360       dropout_2[0][0]                  \
____________________________________________________________________________________________________\
maxpooling1d_2 (MaxPooling1D)    (None, 1, 64)         0           convolution1d_2[0][0]            \
____________________________________________________________________________________________________\
lstm_3 (LSTM)                    (None, 1, 96)         61824       maxpooling1d_2[0][0]             \
____________________________________________________________________________________________________\
dropout_3 (Dropout)              (None, 1, 96)         0           lstm_3[0][0]                     \
____________________________________________________________________________________________________\
lstm_4 (LSTM)                    (None, 160)           164480      dropout_3[0][0]                  \
____________________________________________________________________________________________________\
dropout_4 (Dropout)              (None, 160)           0           lstm_4[0][0]                     \
____________________________________________________________________________________________________\
dense_1 (Dense)                  (None, 8456)          1361416     dropout_4[0][0]                  \
====================================================================================================\
Total params: 7321128\
____________________________________________________________________________________________________\
None\
0\
Epoch 1/20\
66856/66856 [==============================] - 16s - loss: 7.1215 - acc: 0.0604         \
Epoch 2/20\
66856/66856 [==============================] - 16s - loss: 6.8976 - acc: 0.0627     \
…
INFO:gensim.utils:saving Word2Vec object under weights.02.11.hdf5, separately None\
INFO:gensim.utils:not storing attribute syn0norm\
INFO:gensim.utils:not storing attribute cum_table\
INFO:gensim.utils:saved weights.02.11.hdf5\
average length of sentence 30\
(11923, 10) (11923, 2493)\
2493 10\
____________________________________________________________________________________________________\
Layer (type)                     Output Shape          Param #     Connected to                     \
====================================================================================================\
embedding_1 (Embedding)          (None, 10, 100)       5000000     embedding_input_1[0][0]          \
____________________________________________________________________________________________________\
convolution1d_1 (Convolution1D)  (None, 10, 288)       86688       embedding_1[0][0]                \
____________________________________________________________________________________________________\
maxpooling1d_1 (MaxPooling1D)    (None, 3, 288)        0           convolution1d_1[0][0]            \
____________________________________________________________________________________________________\
lstm_1 (LSTM)                    (None, 3, 96)         147840      maxpooling1d_1[0][0]             \
____________________________________________________________________________________________________\
dropout_1 (Dropout)              (None, 3, 96)         0           lstm_1[0][0]                     \
____________________________________________________________________________________________________\
lstm_2 (LSTM)                    (None, 3, 288)        443520      dropout_1[0][0]                  \
____________________________________________________________________________________________________\
dropout_2 (Dropout)              (None, 3, 288)        0           lstm_2[0][0]                     \
____________________________________________________________________________________________________\
convolution1d_2 (Convolution1D)  (None, 3, 64)         55360       dropout_2[0][0]                  \
____________________________________________________________________________________________________\
maxpooling1d_2 (MaxPooling1D)    (None, 1, 64)         0           convolution1d_2[0][0]            \
____________________________________________________________________________________________________\
lstm_3 (LSTM)                    (None, 1, 96)         61824       maxpooling1d_2[0][0]             \
____________________________________________________________________________________________________\
dropout_3 (Dropout)              (None, 1, 96)         0           lstm_3[0][0]                     \
____________________________________________________________________________________________________\
lstm_4 (LSTM)                    (None, 160)           164480      dropout_3[0][0]                  \
____________________________________________________________________________________________________\
dropout_4 (Dropout)              (None, 160)           0           lstm_4[0][0]                     \
____________________________________________________________________________________________________\
dense_1 (Dense)                  (None, 2493)          401373      dropout_4[0][0]                  \
====================================================================================================\
Total params: 6361085\
____________________________________________________________________________________________________\
None\
0\
Epoch 1/20\
11923/11923 [==============================] - 2s - loss: 7.0252 - acc: 0.0355         \
Epoch 2/20\
11923/11923 [==============================] - 2s - loss: 6.4813 - acc: 0.0371     \
…
 ..., \
 [ 0.10171053 -0.06952852 -0.13233396 ..., -0.00866009  0.21427619\
   0.10908536]\
 [ 0.          0.          0.         ...,  0.          0.          0.        ]\
 [ 0.          0.          0.         ...,  0.          0.          0.        ]]\
27429 10\
____________________________________________________________________________________________________\
Layer (type)                     Output Shape          Param #     Connected to                     \
====================================================================================================\
embedding_1 (Embedding)          (None, 10, 100)       5000000     embedding_input_1[0][0]          \
____________________________________________________________________________________________________\
convolution1d_1 (Convolution1D)  (None, 10, 288)       86688       embedding_1[0][0]                \
____________________________________________________________________________________________________\
maxpooling1d_1 (MaxPooling1D)    (None, 3, 288)        0           convolution1d_1[0][0]            \
____________________________________________________________________________________________________\
lstm_1 (LSTM)                    (None, 3, 288)        664704      maxpooling1d_1[0][0]             \
____________________________________________________________________________________________________\
dropout_1 (Dropout)              (None, 3, 288)        0           lstm_1[0][0]                     \
____________________________________________________________________________________________________\
convolution1d_2 (Convolution1D)  (None, 3, 96)         83040       dropout_1[0][0]                  \
____________________________________________________________________________________________________\
maxpooling1d_2 (MaxPooling1D)    (None, 1, 96)         0           convolution1d_2[0][0]            \
____________________________________________________________________________________________________\
lstm_2 (LSTM)                    (None, 1, 96)         74112       maxpooling1d_2[0][0]             \
____________________________________________________________________________________________________\
dropout_2 (Dropout)              (None, 1, 96)         0           lstm_2[0][0]                     \
____________________________________________________________________________________________________\
lstm_3 (LSTM)                    (None, 1, 96)         74112       dropout_2[0][0]                  \
____________________________________________________________________________________________________\
dropout_3 (Dropout)              (None, 1, 96)         0           lstm_3[0][0]                     \
____________________________________________________________________________________________________\
lstm_4 (LSTM)                    (None, 1, 96)         74112       dropout_3[0][0]                  \
____________________________________________________________________________________________________\
dropout_4 (Dropout)              (None, 1, 96)         0           lstm_4[0][0]                     \
____________________________________________________________________________________________________\
lstm_5 (LSTM)                    (None, 1, 96)         74112       dropout_4[0][0]                  \
____________________________________________________________________________________________________\
dropout_5 (Dropout)              (None, 1, 96)         0           lstm_5[0][0]                     \
____________________________________________________________________________________________________\
lstm_6 (LSTM)                    (None, 128)           115200      dropout_5[0][0]                  \
____________________________________________________________________________________________________\
dropout_6 (Dropout)              (None, 128)           0           lstm_6[0][0]                     \
____________________________________________________________________________________________________\
dense_1 (Dense)                  (None, 100)           12900       dropout_6[0][0]                  \
====================================================================================================\
Total params: 6258980\
____________________________________________________________________________________________________\
None\
0\
Epoch 1/5\
411951/411951 [==============================] - 71s - loss: 0.0269 - acc: 0.3103     \
Epoch 2/5\
411951/411951 [==============================] - 71s - loss: 0.0254 - acc: 0.3018     \
…
INFO:gensim.utils:saving Word2Vec object under weights.02.11.hdf5, separately None\
INFO:gensim.utils:not storing attribute syn0norm\
INFO:gensim.utils:not storing attribute cum_table\
INFO:gensim.utils:saved weights.02.11.hdf5\
average length of sentence 9027\
(9017, 10) (9017, 2564)\
2564 10\
____________________________________________________________________________________________________\
Layer (type)                     Output Shape          Param #     Connected to                     \
====================================================================================================\
embedding_1 (Embedding)          (None, 10, 100)       5000000     embedding_input_1[0][0]          \
____________________________________________________________________________________________________\
convolution1d_1 (Convolution1D)  (None, 10, 288)       86688       embedding_1[0][0]                \
____________________________________________________________________________________________________\
maxpooling1d_1 (MaxPooling1D)    (None, 3, 288)        0           convolution1d_1[0][0]            \
____________________________________________________________________________________________________\
lstm_1 (LSTM)                    (None, 3, 96)         147840      maxpooling1d_1[0][0]             \
____________________________________________________________________________________________________\
dropout_1 (Dropout)              (None, 3, 96)         0           lstm_1[0][0]                     \
____________________________________________________________________________________________________\
lstm_2 (LSTM)                    (None, 3, 288)        443520      dropout_1[0][0]                  \
____________________________________________________________________________________________________\
dropout_2 (Dropout)              (None, 3, 288)        0           lstm_2[0][0]                     \
____________________________________________________________________________________________________\
convolution1d_2 (Convolution1D)  (None, 3, 64)         55360       dropout_2[0][0]                  \
____________________________________________________________________________________________________\
maxpooling1d_2 (MaxPooling1D)    (None, 1, 64)         0           convolution1d_2[0][0]            \
____________________________________________________________________________________________________\
lstm_3 (LSTM)                    (None, 1, 96)         61824       maxpooling1d_2[0][0]             \
____________________________________________________________________________________________________\
dropout_3 (Dropout)              (None, 1, 96)         0           lstm_3[0][0]                     \
____________________________________________________________________________________________________\
lstm_4 (LSTM)                    (None, 160)           164480      dropout_3[0][0]                  \
____________________________________________________________________________________________________\
dropout_4 (Dropout)              (None, 160)           0           lstm_4[0][0]                     \
____________________________________________________________________________________________________\
dense_1 (Dense)                  (None, 2564)          412804      dropout_4[0][0]                  \
====================================================================================================\
Total params: 6372516\
____________________________________________________________________________________________________\
None\
0\
Epoch 1/20\
9017/9017 [==============================] - 1s - loss: 7.2489 - acc: 0.0218     ^[f\
Epoch 2/20\
9017/9017 [==============================] - 1s - loss: 6.6106 - acc: 0.0398     \
…
